model_weights.pth (torch, 454668 bytes, 9 tensors)

enc1.0.weight f4 [64, 3, 3, 3]
0	0xbe269f3a	-0.16271678
1	0xbc911cf6	-0.017714005
2	0x3df8d1bb	0.12149378
3	0xbd3c7891	-0.04601342
4	0x3dbf1637	0.09330409
5	0xbdfd6038	-0.12371868
6	0x3e20cab5	0.15702327
7	0x3d2e5a15	0.042566378
8	0x3e102bf9	0.14079274
9	0x3e1d78d9	0.15378131
10	0xbd80e75a	-0.06294127
11	0x3dd54bcc	0.10414848
12	0xbd4fd412	-0.050739355
13	0xbe2656ce	-0.16244051
14	0xbe4319bb	-0.19052784
15	0xbd33eaa8	-0.043924958
16	0x3debd025	0.1151431
17	0xbbd9cba7	-0.0066465917
18	0xbe4f0dc8	-0.20220101
19	0xbc6abd53	-0.014327365
20	0x3dfaf0a0	0.12252927
21	0xbe568a78	-0.20951259
22	0x3e283f09	0.16430296
23	0xbe12e253	-0.14344148
24	0x3d7578bb	0.05992959
25	0xbd4e044a	-0.05029706
26	0xbba775e6	-0.00511049
27	0x3d78b7d2	0.06072218
28	0x3d97bec6	0.07409434
29	0x3da145e5	0.078746594
30	0xbe499cc0	-0.19688702
31	0xbddeaf34	-0.10873261
32	0xbe0ed5d2	-0.13948753
33	0x3db9cd72	0.09072389
34	0x3e06195d	0.13095613
35	0xbd368f10	-0.04457003
36	0x3e08d82f	0.13363717
37	0xbe003f26	-0.12524089
38	0xbe3f53fb	-0.1868438
39	0xbd111963	-0.0354246
40	0xbc5cb865	-0.013471697
41	0x3d6312f7	0.05543801
42	0x3d6e0589	0.058110747
43	0x3cf7761c	0.030207686
44	0x3e06af80	0.13152885
45	0x3db78915	0.08961693
46	0xbe49aca5	-0.19694765
47	0xbd49db2a	-0.049281277
48	0xbd977dda	-0.07397051
49	0xbe45aa6d	-0.19303294
50	0x3d478955	0.048714954
51	0xbbacff8d	-0.0052794875
52	0x3d741215	0.059587557
53	0x3dbd01b7	0.09228843
54	0xbe0d7c49	-0.13816942
55	0xbe01f353	-0.12690477
56	0xbe0528d1	-0.13003851
57	0xbc4fb1a7	-0.012676633
58	0x3e191e98	0.14953077
59	0x3d9e35e7	0.07725125
60	0x3dc28e79	0.09499831
61	0xbd1d93b6	-0.038470946
62	0x3e13171a	0.14364281
63	0x3e23df55	0.16003163
64	0xbd92a5d3	-0.07160535
65	0xbe329ea3	-0.17443328
66	0xbce4e2aa	-0.027940113
67	0xbba8b115	-0.005148063
68	0x3e0c908f	0.1372702
69	0xbe533956	-0.2062734
70	0xbe5bedac	-0.21477383
71	0x3e02c78f	0.12771438
72	0x3e0f75e8	0.14009821
73	0x3e0e42ba	0.13892642
74	0xbd9f7fb1	-0.07788027
75	0xbde55992	-0.11198725
76	0x3dd84bc8	0.10561329
77	0xbc4d304e	-0.012523724
78	0xbe1b9965	-0.15195234
79	0xbe1c6dbc	-0.15276235
80	0x3daa6530	0.08320081
81	0xbd0bff67	-0.034179118
82	0x3d350f72	0.044204183
83	0x3dfe6aac	0.1242269
84	0x3d7e6a3b	0.062113028
85	0x3de607b0	0.11231935
86	0xbd1fbf86	-0.03900101
87	0xbdf381b7	-0.118899755
88	0xbdd4f28b	-0.10397824
89	0x3d4cd7a7	0.05001035
90	0x3dab9cc2	0.083795086
91	0xbe0f53d2	-0.13996819
92	0x3d625792	0.055259295
93	0xbe03ff87	-0.12890445
94	0xbdc0e296	-0.09418218
95	0xbd09aa31	-0.033609573
96	0x3c077efc	0.0082700215
97	0x3d11d0ad	0.0355994
98	0x3e10b1df	0.14130352
99	0xbd31c0a6	-0.043396614
100	0xbcaa06e4	-0.020755239
101	0xbe0a34d7	-0.1349672
102	0xbdf38468	-0.11890489
103	0x3da14222	0.07873942
104	0x3dbba26a	0.091618374
105	0xbd8f8be5	-0.07009105
106	0x3d991da4	0.074763566
107	0xbe371019	-0.17877235
108	0xbd56ded1	-0.052458588
109	0x3d4925a1	0.04910815
110	0xbe1679f9	-0.14694966
111	0x3ce5530e	0.027993705
112	0x3c8cc806	0.017185222
113	0xbcd5456b	-0.026034078
114	0xbc4a7a8b	-0.012358318
115	0x3e2a1b18	0.16611898
116	0x3e0f8fd4	0.1401971
117	0xbe400ee0	-0.18755674
118	0x3de06fad	0.109588005
119	0xbd8d2f0a	-0.068937376
120	0xbdfbeb29	-0.123007126
121	0xbe31cc42	-0.17363074
122	0x3e15e106	0.14636621
123	0xbda5ec96	-0.08101766
124	0xbe1192f7	-0.14216219
125	0x3e131b4b	0.1436588
126	0x3dbfebee	0.09371172
127	0xbbf1ef32	-0.0073832506
128	0xbd2a1ed7	-0.041533317
129	0x3e3e847f	0.18605231
130	0x3d3653a4	0.04451336
131	0xbde038e0	-0.10948348
132	0xbe348930	-0.17630458
133	0x3b2c8c54	0.002632876
134	0x3dfc0f7a	0.123076394
135	0xbc82118c	-0.015877508
136	0xbe137743	-0.14400963
137	0x3d5ecfab	0.054397266
138	0xbdcea505	-0.10090069
139	0xbe23a507	-0.15980922
140	0xbd898cc7	-0.06716304
141	0x3b46dc47	0.0030343698
142	0x3de9fa60	0.11424708
143	0xbd616457	-0.055027332
144	0xbdda2f33	-0.10653534
145	0x3dbe682f	0.09297215
146	0x3e791895	0.24325784
147	0x3de814a3	0.11332061
148	0xbe28f211	-0.16498591
149	0x3e113be6	0.14183006
150	0x3e6bb864	0.23019558
151	0x3d062596	0.03275069
152	0xbe669f6f	-0.22521757
153	0xbdc12c93	-0.0943233
154	0x3c888aaa	0.016667683
155	0xbdd9b0e2	-0.10629441
156	0xbcd91278	-0.026498064
157	0xbe26403d	-0.16235442
158	0xbb533c21	-0.0032231885
159	0x3e22f972	0.15915468
160	0x3de88640	0.11353731
161	0xbd56d3b2	-0.052447982
162	0xbe2d25b7	-0.16908918
163	0xbe111463	-0.14167933
164	0x3e0044c0	0.12526226
165	0x3a87afa5	0.0010352029
166	0x3d664ae9	0.056223784
167	0xbd9fa297	-0.077946834
168	0xbe62a0dc	-0.22131675
169	0xbda1f95c	-0.0790889
170	0xbdda1b53	-0.10649743
171	0x3dae842f	0.08521306
172	0x3dd93309	0.10605437
173	0x3e001026	0.1250616
174	0xbd2f8bbf	-0.04285788
175	0x3d5939e3	0.05303372
176	0x3d054bce	0.032542996
177	0x3dcc8de4	0.09988001
178	0x3c252931	0.010080622
179	0xbc4fe5d6	-0.0126890745
180	0xbd24fe39	-0.040281508
181	0xbdcc8bd9	-0.09987611
182	0xbda57086	-0.08078103
183	0x3da2eba5	0.07955102
184	0x3db41b3e	0.087942585
185	0xbe4ed76d	-0.20199366
186	0xbcf04dde	-0.029334005
187	0x3df44746	0.11927657
188	0x3dc014b8	0.09378952
189	0xbb3fb3dd	-0.0029251494
190	0x3d8f08a8	0.06984073
191	0xbe31faaa	-0.17380777
192	0xbd3883bc	-0.045047507
193	0x3ca01c39	0.019544708
194	0xbe1ce46e	-0.15321514
195	0xbe3a50ba	-0.18194857
196	0x3d1f5848	0.03890255
197	0xbe34d8b6	-0.17660794
198	0xbd96c133	-0.073610686
199	0x3e2551a4	0.16144425
200	0x3cf6e4d7	0.030138416
201	0x3e49e864	0.19717556
202	0xbe282c12	-0.16423061
203	0x3dc7ffdf	0.097656004
204	0xbcac6f15	-0.021049062
205	0x3d95067f	0.0727663
206	0xbe34cde5	-0.17656668
207	0xbc8d8353	-0.017274534
208	0x3cec1ebb	0.028823247
209	0x3e44a503	0.19203572
210	0xbe0f342f	-0.1398475
211	0xbd7f258c	-0.062291667
212	0x3e1073a9	0.14106621
213	0x3ce9c7a8	0.028537586
214	0x3e4f8530	0.20265651
215	0x3e58d2d9	0.21174182
216	0xbe18aea5	-0.14910372
217	0xbdd824b3	-0.10553875
218	0xbe2f9c06	-0.17149362
219	0xbde2ba4d	-0.1107069
220	0x3e0efb97	0.13963161
221	0x3e10ef73	0.14153843
222	0xbdd45217	-0.1036722
223	0x3e01c36e	0.12672207
224	0xbad8b739	-0.0016534097
225	0xbe44cc82	-0.19218639
226	0x3e1359cb	0.14389722
227	0x3dafb473	0.0857934
228	0xbdc77ff6	-0.097412035
229	0x3e1cbc2a	0.15306154
230	0xbe0208b0	-0.12698627
231	0xbe166155	-0.14685567
232	0x3c89d145	0.01682342
233	0x3e15cf4e	0.14629862
234	0x3de9916f	0.114046924
235	0x3d554dcd	0.05207615
236	0x3c777b5f	0.015105098
237	0x3e17acc1	0.14811994
238	0xbe2c10bd	-0.1680326
239	0xbde761a0	-0.11297917
240	0x3e2891ba	0.1646184
241	0x3dfdd29c	0.12393686
242	0xbcb5bbdc	-0.022184305
243	0x3d849712	0.06474127
244	0xbdb7927f	-0.08963489
245	0x3e399a77	0.1812533
246	0xbdd9353b	-0.10605856
247	0x3ded25dc	0.11579487
248	0x3d465e49	0.04842976
249	0xbe08a0e1	-0.1334262
250	0x3d834c49	0.064110346
251	0xbdd5509a	-0.10415764
252	0x3d25fb27	0.04052272
253	0x3c8f55bd	0.017496938
254	0xbde472b5	-0.11154691
255	0x3d4b4ae2	0.04963196

enc1.0.bias f4 [64]
0	0x3df7a54a	0.12092073
1	0x3dd4c671	0.10389412
2	0x3d7bade2	0.061445124
3	0x3df41f53	0.11920037
4	0x3db4af4e	0.08822499
5	0x3bfaa4b6	0.0076490296
6	0x3ccc073c	0.024905793
7	0xbb89ed85	-0.0042092227
8	0xbd7beb83	-0.0615039
9	0xbe2e485b	-0.17019789
10	0x3da73568	0.08164483
11	0xbbb60372	-0.00555461
12	0x3e1ef8b6	0.15524563
13	0x3cec0560	0.028811157
14	0x3daa2cbd	0.083093144
15	0xbc83f9a6	-0.016110253
16	0xbd970284	-0.07373527
17	0x3bde7cfa	0.0067898007
18	0x3d5414e1	0.051777724
19	0xbe371e4f	-0.17882656
20	0xbce43ded	-0.02786156
21	0xbe693a62	-0.22776178
22	0x3e197b24	0.1498838
23	0x3dd1c04c	0.10241756
24	0x3e3c4498	0.18385541
25	0xbe0bc57f	-0.13649558
26	0x3affc31b	0.0019513102
27	0xbd831acd	-0.06401596
28	0x3e043062	0.12909082
29	0xbe5b92a1	-0.21442653
30	0xbdef68f6	-0.116899416
31	0x3d9a954d	0.07548008
32	0xbbe13069	-0.006872226
33	0x3ddc11b9	0.10745568
34	0x3d2c6b3f	0.042094465
35	0xbde32f2b	-0.11092981
36	0xbc8631a8	-0.0163811
37	0x3cd9541e	0.026529368
38	0x3e16f2ac	0.1474101
39	0x3d58120d	0.05275159
40	0x3bd091d6	0.0063650412
41	0xbd12fd09	-0.035885844
42	0xbe684d0e	-0.22685644
43	0xbe33d826	-0.17562923
44	0x3e3b033e	0.18262956
45	0xbd5eabf5	-0.05436321
46	0xbd55f463	-0.05223502
47	0xbc0198db	-0.007909979
48	0x3d1c1117	0.038102236
49	0x3db2ef2a	0.08737023
50	0x3e1de156	0.1541799
51	0x3d94e1aa	0.072696045
52	0xbd7f8b97	-0.062388983
53	0x3e25e6ad	0.16201277
54	0xbc007af2	-0.007841812
55	0xbddfd579	-0.109293886
56	0xbdfd59b2	-0.12370624
57	0x3e499d4c	0.1968891
58	0x3d795d0c	0.060879752
59	0xbd4d6abd	-0.05015062
60	0xbd898bf8	-0.0671615
61	0x3d7c330d	0.061572123
62	0xbc7343fc	-0.014847752
63	0x3d2509b9	0.040292475

enc1.2.weight f4 [64, 64, 3, 3]
0	0xb9d0db6e	-0.0003983634
1	0xbb82b6a2	-0.0039890567
2	0x3bb2e449	0.0054593426
3	0xbca2e94f	-0.01988664
4	0xbd0d8305	-0.034548778
5	0xbc4540e2	-0.012039395
6	0x3d0359cf	0.03206807
7	0x3d1a884f	0.03772765
8	0x3c750c4e	0.014956547
9	0x3c95ec4d	0.018301154
10	0x3d163843	0.03667475
11	0x3baf54a1	0.0053506647
12	0x39560fac	0.00020414469
13	0x3d3151ed	0.04329102
14	0x3d0d57f8	0.03450772
15	0xba6dd216	-0.0009072138
16	0xbbb64d05	-0.0055633807
17	0xbbcd9b3e	-0.00627461
18	0x3c1eb6c8	0.009687133
19	0x3c2a027e	0.010376571
20	0xbcc846cd	-0.024447823
21	0xbcc03880	-0.023464441
22	0xbd54c647	-0.051946905
23	0xba0df8ee	-0.00054158166
24	0xbd2b1cb4	-0.04177542
25	0xbb35d89f	-0.0027747524
26	0x3b175912	0.0023093862
27	0xbc653516	-0.013989707
28	0x3d02c382	0.031924732
29	0x3d31c9be	0.043405287
30	0xbbfba446	-0.007679495
31	0x3c82da21	0.015973153
32	0x3c810d93	0.015753543
33	0x3d065090	0.032791674
34	0x3b17108c	0.0023050634
35	0xbc4d0a92	-0.012514727
36	0xba774e3d	-0.00094339607
37	0xbc590867	-0.013246632
38	0x3d22c594	0.039739206
39	0xbaaec413	-0.0013333581
40	0x3bf6ba48	0.0075295307
41	0x3d23fd0c	0.040036246
42	0x3d13f28e	0.03611999
43	0x3bfa6b13	0.007642159
44	0x3c597fb8	0.013275079
45	0xbd1b49f3	-0.03791232
46	0xbd4fc07d	-0.05072068
47	0xbdc8b5e5	-0.09800319
48	0xbdf236b4	-0.1182684
49	0xbda089fe	-0.0783882
50	0xbd7294ab	-0.059223812
51	0xbdaaac9f	-0.08333706
52	0xbdac9fb0	-0.084288955
53	0xbcb89d8c	-0.022536062
54	0xbcf7d876	-0.030254584
55	0x3cb2fb9e	0.021848496
56	0xbc13ad38	-0.009013467
57	0xbd250112	-0.040284224
58	0xbc96a559	-0.01838939
59	0x3cdbf0f8	0.026848301
60	0x3c00189b	0.007818366
61	0xbd03aacc	-0.032145306
62	0xbb923f7c	-0.0044631343
63	0x3da2c359	0.07947416
64	0x3daf04d8	0.08545846
65	0x3d6bd825	0.05757918
66	0x3dafe0e9	0.0858782
67	0x3de6749b	0.112527095
68	0x3d118f0b	0.035536807
69	0x3d9ef641	0.07761813
70	0x3da21723	0.07914569
71	0x3d5cc48b	0.053898375
72	0xbc23d054	-0.0099984
73	0x3ca5cb6a	0.020238597
74	0xbce5fce5	-0.028074691
75	0x3c54c1c4	0.01298565
76	0x3b68382f	0.0035433879
77	0xbd12a873	-0.035805177
78	0x3d0fbcf4	0.03509231
79	0xbbff0645	-0.00778273
80	0x3cea1554	0.028574623
81	0x3cdc4493	0.026888167
82	0xbd011424	-0.03151335
83	0xbc8a6bf3	-0.016897177
84	0x3c941f1e	0.018081244
85	0x3d1fe70f	0.039038714
86	0xbc026a20	-0.0079598725
87	0xbccfdca8	-0.025373772
88	0xbd0e957f	-0.03481054
89	0x3cb8bc78	0.022550806
90	0x3e6a8feb	0.22906463
91	0x3e4d29da	0.20035496
92	0x3e3bc788	0.18337834
93	0x3e73722a	0.23774019
94	0x3e81c4dd	0.25345507
95	0x3e725280	0.23664284
96	0x3e60a9bc	0.21939749
97	0x3e577a90	0.21042848
98	0x3e9034ee	0.28165382
99	0xbc02c0e7	-0.007980562
100	0xbcbeadbb	-0.0232762
101	0x3d6a3f82	0.057189472
102	0xbcf8b6a4	-0.030360527
103	0xbd000ca6	-0.031262062
104	0x3d8e0782	0.06935026
105	0xbc962914	-0.018330134
106	0xbc20d237	-0.009815744
107	0x3d60ad5d	0.054852832
108	0xbcfa5838	-0.030559644
109	0xbc82f92c	-0.015987955
110	0x3d32b7e6	0.04363241
111	0x3c8739e6	0.0165071
112	0x3d316874	0.043312505
113	0xbcd37660	-0.025813282
114	0xba463a77	-0.00075618125
115	0x3d04b4a4	0.032398835
116	0xbbca86cd	-0.0061806203
117	0x3cb63ceb	0.022245845
118	0x3a84cf4a	0.0010132578
119	0x3bee2258	0.0072672777
120	0xbcb05c8e	-0.021528509
121	0xbcf941f2	-0.030426953
122	0x3d2c9352	0.042132683
123	0x3c2d8a96	0.0105921235
124	0x3cf8fbe3	0.030393546
125	0x3c30862d	0.0107741775
126	0xbcd4fc65	-0.025999257
127	0x3d3623e8	0.044467837
128	0x3c1fa5ce	0.009744121
129	0x3d31d776	0.04341837
130	0xbc28fc64	-0.010314081
131	0x3c9f8c03	0.019475942
132	0x3bc2449f	0.0059285904
133	0xbc0ee138	-0.0087206885
134	0xbc07f8d9	-0.008299076
135	0x3c822455	0.015886465
136	0xbcc46114	-0.023972072
137	0x3c778ef4	0.015109766
138	0xbc90490f	-0.017612962
139	0x3ccf889d	0.025333697
140	0xbc1833f8	-0.009289734
141	0x3c42c202	0.011887075
142	0x3cb1ca38	0.02170287
143	0xbcaceaff	-0.021108149
144	0x3cf5308a	0.029930372
145	0xbd8a6168	-0.0675686
146	0xbd3a489c	-0.045479402
147	0xbc3f12ff	-0.011662244
148	0xbd240456	-0.040043198
149	0xbd91036e	-0.07080732
150	0x3c9d6558	0.019213364
151	0xbd011ad1	-0.031519715
152	0xbb669e12	-0.0035189432
153	0xbded9049	-0.11599786
154	0xbd9be661	-0.07612301
155	0xbdb12729	-0.08650047
156	0xbd3ba453	-0.04581101
157	0xbcd8307e	-0.02639031
158	0xbd58cb53	-0.05292828
159	0xbd07fdfc	-0.033201203
160	0x3d6fb3ce	0.058521084
161	0xbd0313fe	-0.032001488
162	0x3cb50fe2	0.0221023
163	0xbcd798ec	-0.026318036
164	0x3ccec3e3	0.02523989
165	0x3d6dc06f	0.058044847
166	0x3c0adaca	0.008475015
167	0x3cc32f71	0.023826333
168	0xbc8394f8	-0.016062245
169	0xbc6137e1	-0.013746233
170	0x3a977ac4	0.0011556973
171	0xbd037232	-0.032091327
172	0xbc8a8caa	-0.016912777
173	0x3b3ff06d	0.0029287592
174	0xbd86a0da	-0.06573649
175	0xbc8e8402	-0.01739693
176	0xbc141dd6	-0.009040317
177	0xbd51bdc6	-0.051206373
178	0xbca5a6b0	-0.020221084
179	0xbd16c519	-0.03680906
180	0x3d266272	0.04062123
181	0x3d226e19	0.03965578
182	0x3d7ba176	0.061433278
183	0xbcf40224	-0.029786177
184	0x3d21eca9	0.039532337
185	0x3c1a51c7	0.009418911
186	0xbb1b475a	-0.0023693652
187	0xbccbdd5f	-0.024885831
188	0x3d721acc	0.059107587
189	0xbcc902a3	-0.02453739
190	0xbd20276b	-0.039100092
191	0xbd15a0fb	-0.036530476
192	0xbd4a3f35	-0.049376685
193	0xbc96a488	-0.018389001
194	0xbd497291	-0.049181525
195	0x3b2b9639	0.002618207
196	0xbc5c74d2	-0.0134555865
197	0x3b0b5919	0.0021262823
198	0x3d659409	0.05604938
199	0xbcaa65a6	-0.020800423
200	0x3cba5fd0	0.022750765
201	0x3c751b41	0.014960111
202	0x3d12af9e	0.035812013
203	0x3cbf320f	0.0233393
204	0x3c856bf7	0.016286833
205	0xbcde0fcd	-0.027107144
206	0x3cb43a31	0.022000404
207	0x3c01b692	0.007917063
208	0x3caaa4a0	0.020830452
209	0x3ce3a563	0.027788823
210	0xba32e39f	-0.00068240793
211	0x3ca5951a	0.020212699
212	0x3c5f458e	0.013627423
213	0xbcc995bb	-0.02460753
214	0x3d18d949	0.037316594
215	0xbcad6150	-0.021164566
216	0x3c158bd9	0.009127581
217	0xbcb7c1ec	-0.022431336
218	0x3c9399ec	0.018017732
219	0x3d3f6845	0.0467303
220	0x3cbbb60b	0.022913953
221	0x3d3930ad	0.045212436
222	0x3b995846	0.0046797125
223	0x3cb7eb78	0.022451147
224	0x3cf80d10	0.030279666
225	0xbccf4e66	-0.025305938
226	0xbd40ef4a	-0.047103204
227	0x3ca1b6c2	0.019740466
228	0x3c23f362	0.010006757
229	0x3ce691b4	0.028145649
230	0x3c720860	0.014772505
231	0x3cab0a01	0.020878794
232	0x3ca16f8c	0.01970651
233	0x3c477923	0.012174877
234	0x3d069c23	0.032863747
235	0xbc8f04d1	-0.017458351
236	0xbcd8ba9c	-0.02645617
237	0xbcafee2c	-0.021475874
238	0xbb8f3b88	-0.0043711103
239	0xbb7c363b	-0.0038484472
240	0x3d227dbb	0.039670687
241	0x3d0d737b	0.03453396
242	0x3cd9a2c4	0.02656687
243	0x3d531af1	0.051539365
244	0x3d2e6e55	0.04258569
245	0x3db0bb77	0.08629506
246	0x3d8cf16e	0.068819866
247	0x3d8342b2	0.064092055
248	0x3c8c67ab	0.017139276
249	0x3d5da0b7	0.054108348
250	0x3d912a2f	0.07088124
251	0x3d6745ef	0.05646318
252	0x3d40a782	0.047034748
253	0xbc80c722	-0.015719954
254	0x3ce16fc6	0.027519118
255	0x3d300b8b	0.04297976

enc1.2.bias f4 [64]
0	0x3ca2fd43	0.019896155
1	0xbb842ce3	-0.004033671
2	0x3cf429c9	0.029805081
3	0x3b554158	0.0032540169
4	0xbc530dda	-0.01288172
5	0xb9b88ca0	-0.0003519999
6	0xbd06e9ea	-0.03293792
7	0xba265911	-0.00063456694
8	0x3ca934dc	0.020655088
9	0x3c8e4dbc	0.017371051
10	0x3cf0bddd	0.029387409
11	0xbd11356e	-0.035451345
12	0x3d2fd8dc	0.042931423
13	0x3c809458	0.015695736
14	0xbc7bce18	-0.015368961
15	0xbc9a0316	-0.0188003
16	0xba644130	-0.00087072235
17	0x3b56fa54	0.0032803016
18	0x3cf03cab	0.029325804
19	0x3ca789e3	0.020451492
20	0x3d3c896c	0.046029493
21	0xbb4ce2fd	-0.0031263225
22	0x3d202a04	0.03910257
23	0xbb8ee6d6	-0.004361014
24	0xbd11097f	-0.035409447
25	0x3c372d0d	0.011180175
26	0x3c02c071	0.007980452
27	0xbd2373bc	-0.039905295
28	0x3d691915	0.056908686
29	0xbc2f25df	-0.0106901815
30	0xbc2518f0	-0.010076746
31	0xbd390eea	-0.04518024
32	0x3c99e5f2	0.018786404
33	0xbc4301b5	-0.011902262
34	0xbd12b05f	-0.03581273
35	0x3c6df953	0.014524776
36	0x3d4767cf	0.048682984
37	0xbc966994	-0.01836089
38	0x3cbb2af2	0.022847626
39	0x3cc910ec	0.024544202
40	0x3d160942	0.036629923
41	0x3c8206e4	0.015872426
42	0xbd03f7e1	-0.032218818
43	0x3d632dd9	0.055463646
44	0x3caace2d	0.020850265
45	0xbba41485	-0.005007329
46	0xbbe3597b	-0.006938157
47	0xbcbf1ba1	-0.023328604
48	0xbbfa6612	-0.0076415623
49	0x3cb69800	0.022289276
50	0x3d51c425	0.05121245
51	0xbcf381b5	-0.029724935
52	0xbb8d8b68	-0.004319597
53	0xbb49a33f	-0.0030767468
54	0xbc974628	-0.01846607
55	0xbb1e8ad4	-0.0024191635
56	0xbd3d4867	-0.046211626
57	0x3ce30669	0.027713018
58	0x3c509dd7	0.012732944
59	0xbcd4a007	-0.025955213
60	0x3d47e353	0.048800778
61	0xbc89359a	-0.016749192
62	0x3d6af3b2	0.057361312
63	0xbc11e722	-0.008905204

dec1.0.weight f4 [64, 64, 3, 3]
0	0x3cdd23c0	0.026994586
1	0x3c35d59a	0.01109829
2	0x3cf46e21	0.02983767
3	0xbce1e05c	-0.027572803
4	0x3cce2630	0.025164694
5	0x3c12c6b1	0.008958505
6	0xbb0711c2	-0.002060995
7	0x3cd6e8c3	0.026234036
8	0x3d0b2257	0.033968296
9	0xbc8a980f	-0.01691821
10	0xbcc92485	-0.024553547
11	0xbce1e9b8	-0.027577266
12	0x3bcd0575	0.006256754
13	0xbd215f78	-0.039397687
14	0xbc54c8e7	-0.012987352
15	0xbbcb2270	-0.0061991736
16	0xbd20aef7	-0.03922936
17	0xbcbccf2f	-0.023048012
18	0xbd00ba5e	-0.031427734
19	0x3b261abb	0.0025345522
20	0xbd3fcd62	-0.046826728
21	0xba9ea2dc	-0.0012102979
22	0xbce0fef9	-0.02746533
23	0xbd331e6e	-0.043730192
24	0xbd2174f6	-0.039418183
25	0xbd22d22b	-0.039751213
26	0xbd40e5d5	-0.047094185
27	0x3c98ed8d	0.01866796
28	0xbc111436	-0.008854916
29	0x3ce043c8	0.02737607
30	0xbd272de3	-0.040815245
31	0x3c98c6d0	0.018649489
32	0xbc0e1b64	-0.008673523
33	0x3d12971e	0.035788648
34	0xbc90e4e2	-0.017687265
35	0x3d07118b	0.032975715
36	0x3ce21102	0.027596
37	0xbd3cc15a	-0.046082832
38	0x3d09a1a9	0.033601437
39	0x3cc86906	0.024464142
40	0x3d074c66	0.033031844
41	0xbc89ecb4	-0.016836502
42	0xbbbe95ee	-0.005816213
43	0xbce9512d	-0.02848109
44	0x3c28f713	0.010312813
45	0x3c6b8e40	0.014377177
46	0x3c42f8a3	0.0119001
47	0xbd4357d0	-0.047691166
48	0xbd3f9380	-0.046771526
49	0xbd257b13	-0.040400576
50	0xbd363d67	-0.04449215
51	0xbccc1822	-0.024913851
52	0xbd34792d	-0.044060875
53	0x3c129169	0.008945801
54	0x3b422c36	0.0029628403
55	0x3a767845	0.0009402077
56	0x3c038f1c	0.008029725
57	0xbc871566	-0.016489696
58	0x3c150fc7	0.009098
59	0xbb691fa0	-0.0035571828
60	0x3c727e06	0.014800554
61	0x3b0431da	0.0020171315
62	0x3cc99884	0.024608858
63	0xbd29a11a	-0.041413404
64	0xbccfb256	-0.025353592
65	0x3b765fa4	0.0037593627
66	0xbd2f5ae8	-0.042811304
67	0xbb6d2b57	-0.0036189163
68	0x3bc11b90	0.0058931783
69	0x3c0aef25	0.008479868
70	0x3c355d11	0.011069552
71	0xbc2c1f0c	-0.010505449
72	0xbc26d3da	-0.010182345
73	0x3b080ed2	0.0020760787
74	0xbcf6d55c	-0.030131035
75	0x3cf67205	0.030083666
76	0x3c12cad2	0.008959489
77	0xbbef9cb5	-0.007312382
78	0x3beb9a73	0.0071900426
79	0x3cabf763	0.020991987
80	0x3cce1f23	0.025161332
81	0xbc75aa09	-0.014994153
82	0x3c93391c	0.017971568
83	0xbcdffad5	-0.027341286
84	0x3bedfd0b	0.007262831
85	0xbc062fa9	-0.008190074
86	0x3c4b152a	0.012395183
87	0xbc27109c	-0.010196831
88	0xbcf213de	-0.029550489
89	0x3c62d09c	0.013843682
90	0xbd30a661	-0.04312742
91	0x3c89a3a1	0.016801657
92	0x39ea2f55	0.00044667223
93	0x3b897545	0.004194888
94	0x3cab03cc	0.020875834
95	0xbd509575	-0.050923783
96	0xbd1e8ca8	-0.03870836
97	0xbcf1fe9a	-0.029540349
98	0xbd246538	-0.040135592
99	0x3cbc7f32	0.02300987
100	0xbd1afa09	-0.03783611
101	0x3bacc109	0.005272035
102	0x3ce20ac5	0.027593026
103	0xbc9c7c50	-0.019102246
104	0xbd23eae0	-0.040018916
105	0xbd119b7a	-0.035548665
106	0x3cf231c5	0.029564748
107	0xbd21383b	-0.039360266
108	0xbd0a718a	-0.033799686
109	0xbd4cd072	-0.050003476
110	0xbd4916d3	-0.049094032
111	0xbd3709bd	-0.04468702
112	0xbcbd3de8	-0.023100808
113	0x3ba6eee2	0.005094395
114	0xbd1c94eb	-0.038227957
115	0xbb902ac4	-0.0043996293
116	0x3c4465cd	0.011987162
117	0x3cf91b1f	0.03040844
118	0x3c9d777f	0.01922202
119	0xbc26face	-0.010191632
120	0x3c282a4e	0.0102639925
121	0x3d0a3833	0.033745002
122	0xbc46a067	-0.012123204
123	0xbca1e8dc	-0.019764356
124	0x3d335b39	0.04378817
125	0x3cde1908	0.027111545
126	0xb895665a	-7.123938e-05
127	0xbd3501ea	-0.04419128
128	0xbb6b3edb	-0.003589562
129	0xbd7229ec	-0.05912201
130	0xbcb7a471	-0.022417279
131	0xbc81f1c3	-0.015862351
132	0xbcce5ea3	-0.02519161
133	0x3ca45319	0.020059155
134	0x3bee1926	0.0072661815
135	0xbd155411	-0.036457125
136	0xbc965aff	-0.018353937
137	0xbce1d9af	-0.02756962
138	0x3c6ecb23	0.014574799
139	0xbcfa999a	-0.030590821
140	0xbd1bcc35	-0.038036544
141	0xbd29f78c	-0.041495845
142	0xbc231101	-0.0099527845
143	0xbca1dc95	-0.019758502
144	0x3d163a96	0.036676966
145	0x3bb5b8f6	0.0055457307
146	0xbc620e16	-0.013797304
147	0xbca5c9a0	-0.020237744
148	0x3a9bbc80	0.0011881739
149	0xbc37ff56	-0.01123031
150	0x3c832c9b	0.01601248
151	0x3cfed896	0.031109136
152	0x3cf4dc1b	0.02989011
153	0xbb957806	-0.004561427
154	0xbcf5ce37	-0.030005557
155	0x3cc1d8a8	0.02366288
156	0xbcf7ca81	-0.030247929
157	0xbc9da633	-0.019244289
158	0x3cd5ed5a	0.026114155
159	0xbb73becf	-0.0037192588
160	0x3c490459	0.012269103
161	0xbb8856f6	-0.004160757
162	0xbc142fc0	-0.009044588
163	0x3c8f2945	0.017475734
164	0x3c690fb9	0.01422494
165	0xbb3cad5e	-0.0028789858
166	0x3b8df316	0.0043319566
167	0x3cc4e677	0.024035675
168	0x3caea53e	0.021319028
169	0xbcd00042	-0.025390748
170	0xbd056b84	-0.032573238
171	0xbb8d4cca	-0.0043121325
172	0xbcba56c9	-0.02274646
173	0x3c520bc2	0.012820186
174	0x3cc13738	0.0235859
175	0xbcb1bd07	-0.02169658
176	0xbd30754e	-0.04308062
177	0x3c878dff	0.016547201
178	0xbc3a1fa7	-0.011360086
179	0x3d111b5f	0.035426494
180	0x3c87637b	0.016526928
181	0x3ba3155b	0.004976911
182	0xbcb5e4c1	-0.022203805
183	0xbd2d51ac	-0.042314216
184	0xbd000fff	-0.031265255
185	0x3c784a3c	0.015154418
186	0xbd4f7c42	-0.05065561
187	0xbc51c40f	-0.012803092
188	0xbd432b8a	-0.047648944
189	0xbd1a71d8	-0.037706226
190	0x3beca91b	0.0072223074
191	0x3c7cfc62	0.015441032
192	0xbaf0ffd4	-0.001838679
193	0x3cba16bd	0.02271592
194	0x3cb8f142	0.022575978
195	0xbd237161	-0.03990305
196	0xbd3af4a8	-0.04564348
197	0xbc3789c3	-0.011202279
198	0x3cd69201	0.026192667
199	0xbc90402e	-0.017608728
200	0xbd35632a	-0.044284023
201	0x3cb4b643	0.022059565
202	0x3cce60a8	0.025192574
203	0xbd2ac4c9	-0.041691575
204	0x3bdeeb72	0.0068029696
205	0xbc22a644	-0.009927336
206	0x3bd10a62	0.0063794116
207	0xbd0fbfa0	-0.035094857
208	0xbb8b9bbe	-0.0042605093
209	0x3cb4dd81	0.022078278
210	0x3be653ef	0.0070290486
211	0xbd1e4eef	-0.038649496
212	0xbc736c95	-0.014857431
213	0x3c9fef0d	0.019523168
214	0xbbb61ec4	-0.0055578668
215	0xbd12a492	-0.035801478
216	0x3c5c64d4	0.013451774
217	0x3c9a4635	0.018832305
218	0xba801472	-0.0009771718
219	0x3bd24353	0.006416717
220	0xbd0582d6	-0.032595478
221	0xbbc6e8fe	-0.0060702553
222	0xbbad38bf	-0.0052863057
223	0x3d02f248	0.03196934
224	0xbcae13df	-0.02124971
225	0x3c8150e5	0.015785644
226	0x3bf1a4da	0.007374388
227	0xbd257c86	-0.040401958
228	0xbd3ddfdf	-0.04635608
229	0xbba8b99f	-0.005149081
230	0xbcf1273f	-0.02943766
231	0xbc382e9b	-0.01124158
232	0xbb08d369	-0.0020877963
233	0xbc171684	-0.009221677
234	0xbcaa847b	-0.020815125
235	0xbb9f12e1	-0.0048545455
236	0xbb41cd05	-0.0029571664
237	0xbd3a4e2d	-0.04548471
238	0xbd2daadb	-0.04239927
239	0x3b77b119	0.0037794767
240	0x3cb2c753	0.02182356
241	0xbc451742	-0.012029471
242	0xbcbdcc57	-0.023168726
243	0xbc8a1969	-0.01685782
244	0xbc7092dd	-0.014683452
245	0xbce0a250	-0.027421147
246	0xbc934747	-0.017978324
247	0xbd051ce3	-0.03249825
248	0x3c84eea5	0.016227076
249	0x3bc23dbe	0.0059277704
250	0xbd015ac7	-0.031580713
251	0x3ca73f07	0.020415796
252	0xbaaaa614	-0.0013019466
253	0x3cc455f1	0.023966761
254	0x3b335443	0.0027363456
255	0xbd5f1c17	-0.054470148

dec1.0.bias f4 [64]
0	0xbc0771a6	-0.008266842
1	0x3d3a8687	0.04553845
2	0xbc5a3059	-0.013317191
3	0x3c52b6c1	0.012860955
4	0xbca7015f	-0.020386396
5	0x3d8ebb73	0.06969347
6	0x3d974ca1	0.07387663
7	0x3d144c93	0.03620584
8	0xbc12766b	-0.008939366
9	0xbc3267ae	-0.010888977
10	0xbd185e65	-0.037199397
11	0xbc89416e	-0.016754832
12	0xbc890767	-0.016727163
13	0x3c07e0b9	0.008293324
14	0x3d69f249	0.057115827
15	0x3df614f4	0.12015715
16	0x3ca4234f	0.020036368
17	0x3c0c83af	0.008576318
18	0x3cf01189	0.029305236
19	0x3ce43f34	0.027862169
20	0xbd1a82f7	-0.037722554
21	0x3d05ac53	0.032635044
22	0x3d1095ef	0.035299238
23	0xbce5cb05	-0.028050909
24	0x3cf619d0	0.030041605
25	0x3d57509b	0.052567106
26	0x3d5e412f	0.054261383
27	0xbd80696b	-0.06270107
28	0x3d7118e5	0.058861632
29	0xbcfdd2de	-0.030984338
30	0x3cf5e688	0.030017152
31	0xbd38eda0	-0.04514849
32	0x3ccb8d20	0.024847567
33	0x3d85211f	0.06500458
34	0xbb139381	-0.002251834
35	0xbb0b2178	-0.0021229666
36	0xbd3e9bea	-0.04653541
37	0x3d6728eb	0.056435507
38	0x3cc84e93	0.02445153
39	0x3d16e8cf	0.036843117
40	0xbd237caa	-0.03991381
41	0x3d3d5930	0.046227634
42	0x3d24e8d7	0.040261116
43	0xbc096ddb	-0.008388008
44	0xbcb1a891	-0.021686824
45	0x3cc27817	0.023738904
46	0x3b2f2c1b	0.002672917
47	0x3c818950	0.015812546
48	0xbba0170b	-0.0048855594
49	0xbd0d6bad	-0.034526516
50	0xbcb2cf6d	-0.021827424
51	0xbc5e67e1	-0.013574571
52	0xbc10b8df	-0.008833139
53	0x3d24b23a	0.040209033
54	0x3d1e1368	0.038592726
55	0xbcc169e5	-0.023610065
56	0x3d77c318	0.06048879
57	0xbd3963fb	-0.045261364
58	0xbb0ef768	-0.0021814946
59	0x3d64f94c	0.05590181
60	0xbc2196eb	-0.009862642
61	0x3c11a932	0.008890437
62	0x3d1db254	0.038500145
63	0x3d0ea7cd	0.034827996

dec1.2.weight f4 [64, 64, 3, 3]
0	0x3ce16966	0.027516078
1	0xbc9cebd2	-0.019155417
2	0xbd14872f	-0.036261734
3	0xbc075822	-0.008260759
4	0x3c942e32	0.018088434
5	0x3bc57400	0.006025791
6	0x3d305ced	0.04305737
7	0xbc084d91	-0.0083192745
8	0xbb976c59	-0.0046210703
9	0xbb4dd851	-0.0031409452
10	0xbd108a4f	-0.03528815
11	0x3c088071	0.008331404
12	0xb9234bcd	-0.0001557313
13	0xbc1816e2	-0.009282799
14	0xbbded1c1	-0.006799907
15	0xbca28c99	-0.019842433
16	0xbb8d948b	-0.004320686
17	0xbc4f3be1	-0.012648554
18	0x3cdbef99	0.026847648
19	0xbd157947	-0.036492612
20	0xbcdd2b1a	-0.026998091
21	0xbd0d00a6	-0.034424447
22	0xbc106433	-0.008812952
23	0x3d1457fe	0.03621673
24	0xbd02e50b	-0.031956714
25	0xbd12ce78	-0.035841435
26	0xbc88d120	-0.016701281
27	0xbc407ab0	-0.011748001
28	0x3ce02a64	0.027363963
29	0xbd267174	-0.04063554
30	0x3a58837c	0.0008259339
31	0x3bbf8484	0.0058446545
32	0x3b536cbd	0.0032260858
33	0xbc523055	-0.012828906
34	0xbc594018	-0.01325991
35	0x3b9b4446	0.0047383634
36	0x3a5b3289	0.00083617173
37	0xbcb2cc3d	-0.021825904
38	0x3d0ebef6	0.034850083
39	0xbbc10fea	-0.0058917897
40	0xbc6a34ef	-0.014294847
41	0xbcc436d5	-0.023951927
42	0x3cbb1bc7	0.022840394
43	0xbcb27811	-0.021785768
44	0xbcd3caf1	-0.025853606
45	0x3b3303e3	0.002731555
46	0x3cdba4f8	0.026812062
47	0x3d251110	0.040299475
48	0xbcc08367	-0.023500158
49	0x3d3552c6	0.044268392
50	0x3c8a0195	0.016846457
51	0x3bb41dd5	0.0054967203
52	0x3cebfdba	0.02880751
53	0xbcd340aa	-0.02578767
54	0xbcdfa553	-0.027300512
55	0x3cedec2c	0.02904328
56	0x3cfbeb07	0.030751718
57	0x3d2448c4	0.040108457
58	0x3ce893ff	0.028390883
59	0x3d10d367	0.03535786
60	0x3d3793dd	0.044818748
61	0x3d3722b9	0.04471085
62	0xbc9bcb6b	-0.019017896
63	0x3ba31099	0.004976344
64	0xbd2c0770	-0.04199928
65	0x3b4a5f40	0.0030879527
66	0xbc352b4d	-0.011057687
67	0xbbc50b53	-0.006013313
68	0xbd8faa82	-0.07014944
69	0xbd3ed894	-0.046593264
70	0xbc0ae9f0	-0.008478627
71	0xbd0cb923	-0.034356248
72	0xbc250756	-0.01007255
73	0xbcf5ae69	-0.029990392
74	0xbc9c4690	-0.019076616
75	0x3d0db47c	0.03459595
76	0x3c93da65	0.018048475
77	0x3c77d9fa	0.015127653
78	0x3c2f610d	0.010704291
79	0x3be14110	0.006874211
80	0x3ca57df1	0.020201655
81	0x3d1e1e10	0.03860289
82	0xbc6d5740	-0.014486134
83	0xbce7dbb9	-0.028303014
84	0x3c221271	0.009892092
85	0x3d229bb0	0.039699256
86	0x3c9dcddd	0.019263202
87	0xbca77a2a	-0.020443995
88	0xbd006355	-0.03134473
89	0x3d14dbe2	0.03634251
90	0xbb67ce83	-0.0035370893
91	0x3d1af60b	0.0378323
92	0xb9096219	-0.00013101882
93	0xbc8e3006	-0.017356884
94	0x3cc720de	0.024307664
95	0x3b9e67ee	0.0048341667
96	0x3b41c72b	0.0029568176
97	0xbcaeafd8	-0.021324083
98	0xbbec8fe7	-0.007219303
99	0x3cd7df6a	0.02635165
100	0xbd34ffcb	-0.044189256
101	0xbd0d52e6	-0.034502886
102	0xbcdbded6	-0.026839655
103	0x3d16eb44	0.03684546
104	0x3c8a2beb	0.016866645
105	0xbb49c1b5	-0.0030785624
106	0xbd17fcf0	-0.037106454
107	0x3bc3d52b	0.0059763393
108	0xbc41b76b	-0.011823515
109	0xbc26e3fb	-0.010186191
110	0xbb38b073	-0.0028181344
111	0x3cd8fc77	0.026487572
112	0xbbf25339	-0.007395175
113	0xbb736997	-0.0037141794
114	0xbcaf925d	-0.021432096
115	0xbc716cc2	-0.014735403
116	0xbcea0096	-0.028564733
117	0x3ccc3ee0	0.024932325
118	0x3ccbd323	0.024880951
119	0x3d10f7b0	0.035392463
120	0xbcf6b939	-0.030117618
121	0xbcf7d1e5	-0.030251453
122	0x3d0ee616	0.034887396
123	0x3b99c996	0.0046932204
124	0xbd1ced51	-0.03831226
125	0x3a2a31ac	0.0006492387
126	0x3c555ace	0.013022138
127	0xbce2ba21	-0.027676644
128	0xbce5a22b	-0.02803143
129	0x3ce09d70	0.027418822
130	0x3ba3fc1c	0.005004419
131	0xbc3cf2f2	-0.011532532
132	0xbcdf11a0	-0.027230084
133	0xbc171155	-0.009220441
134	0x3d188f8f	0.037246283
135	0xbc823949	-0.015896456
136	0xbc85a713	-0.016315019
137	0xbd2e3990	-0.042535365
138	0xbc2ac616	-0.010423204
139	0xbd90c359	-0.070685096
140	0xbd9a42da	-0.07532282
141	0xbd745da9	-0.059659634
142	0xbce92cd8	-0.028463766
143	0xbcdda113	-0.027054345
144	0x3c9e8d18	0.019354388
145	0xbd0ec335	-0.034854133
146	0x3be2e822	0.006924645
147	0x3cf78113	0.030212915
148	0xbd16fb4b	-0.036860745
149	0x3a69566c	0.00089011225
150	0x3be51f89	0.0069922847
151	0xbcd9a076	-0.026565772
152	0x3d023957	0.031792965
153	0xba8898df	-0.0010421536
154	0x3ccdc03d	0.02511608
155	0xbcb26a18	-0.021779105
156	0x3c1c9c11	0.0095586935
157	0xba8c5ed3	-0.0010709412
158	0xbcaeccaa	-0.021337826
159	0xbd1a45f8	-0.037664384
160	0x3bce47c2	0.0062951753
161	0xbd217bd2	-0.039424725
162	0xba3d8e8f	-0.0007231021
163	0x3c878c69	0.016546445
164	0xbc32ef6e	-0.010921342
165	0xbcc60d21	-0.024176182
166	0xbb111fc4	-0.0022144178
167	0x3d08b939	0.033379767
168	0x3b307022	0.0026922305
169	0x3c8cc4b3	0.017183637
170	0x3ce69ae6	0.028150033
171	0x3b994def	0.00467848
172	0x3d281c64	0.0410427
173	0xbc15058b	-0.00909556
174	0xbd0beb12	-0.034159727
175	0xbca25306	-0.01981498
176	0x3a62bfb1	0.000864978
177	0xbcce8056	-0.02520768
178	0xbcfce329	-0.030870037
179	0x3ad5584c	0.0016276925
180	0xbc47a590	-0.012185469
181	0xbc1075b3	-0.008817124
182	0x3c30c371	0.010788784
183	0xbcb02be9	-0.021505313
184	0xbd17b45c	-0.03703724
185	0x3cb79f67	0.022414876
186	0xbc4b21d4	-0.012398202
187	0xbc8a25d0	-0.016863734
188	0xbc02511f	-0.007953911
189	0xba86d3d8	-0.0010286523
190	0x3ca2de39	0.019881355
191	0x3d1ac17c	0.037782177
192	0xbb64281e	-0.003481395
193	0x3cfb2dc0	0.030661464
194	0x3a8a8940	0.0010569468
195	0xbcb59c34	-0.02216921
196	0xbc64893f	-0.013948738
197	0x3af89810	0.0018966217
198	0x3cb4a940	0.022053361
199	0xbc8fad9c	-0.017538838
200	0x3b1cc6f2	0.0023922292
201	0x3bcffb4c	0.0063470956
202	0xbd54e7e4	-0.05197896
203	0xbcd2d492	-0.025736127
204	0x3cdd46ff	0.027011393
205	0xbd20311b	-0.03910933
206	0xbd37168c	-0.044699237
207	0x3ca813d6	0.020517271
208	0xbd3143f8	-0.04327771
209	0x3cc12bc5	0.023580441
210	0xbd26f490	-0.040760577
211	0x3d09447c	0.033512577
212	0xbd474630	-0.04865092
213	0xbc8d9c93	-0.017286574
214	0xbcf15579	-0.029459702
215	0xbc933d77	-0.017973645
216	0xbd264b30	-0.04059905
217	0xbd19c43e	-0.037540667
218	0x3d04e16d	0.032441545
219	0xbc846aaa	-0.016164143
220	0xbd07aa13	-0.03312118
221	0x3cb909c0	0.022587657
222	0xbd256870	-0.040382802
223	0x3c990608	0.018679634
224	0xbd2b1bf2	-0.041774698
225	0xbc8138a8	-0.015774086
226	0x3cb85f4d	0.02250638
227	0xbc2ee6f2	-0.010675179
228	0x3d1778e7	0.036980536
229	0x3c651f6c	0.013984542
230	0x3c9d4d24	0.019201823
231	0x3d0c832e	0.03430479
232	0xbcf8a994	-0.030354299
233	0xbbf573ef	-0.007490627
234	0xbc005e71	-0.007835017
235	0xbc0bdb17	-0.008536122
236	0x3cafde80	0.021468401
237	0xbccb95ff	-0.024851797
238	0x3cbb80f2	0.022888634
239	0x3cca7d1e	0.024717864
240	0xbd2140e1	-0.039368514
241	0x3d29e839	0.04148123
242	0x3cb6c4db	0.022310665
243	0xbc081d6d	-0.008307797
244	0x3c494f05	0.012286906
245	0xbd12b9bb	-0.035821658
246	0x3cfa8dbc	0.030585162
247	0xbcd829e8	-0.02638717
248	0xbd3de18c	-0.046357676
249	0xbc40a270	-0.011757478
250	0xbca8f8ca	-0.020626444
251	0xbb97942e	-0.0046258187
252	0xbcc8dd7e	-0.024519678
253	0x3d1b3dd6	0.03790077
254	0x3d21bdc6	0.039487623
255	0x3d099e2c	0.03359811

dec1.2.bias f4 [64]
0	0x3d3e8050	0.046509087
1	0x3c064a5c	0.00819644
2	0xbd0b27e2	-0.033973582
3	0x3c20a7aa	0.009805599
4	0x3c71188f	0.014715328
5	0x3d823c44	0.06359151
6	0xbc878237	-0.016541583
7	0xbc841251	-0.016122015
8	0xbc43450d	-0.011918318
9	0x3d0a9e1a	0.033842184
10	0xbb9664db	-0.0045896596
11	0xbc293b63	-0.0103291
12	0xbd091807	-0.03347018
13	0x3da11837	0.07865947
14	0x3c816b0b	0.015798112
15	0x3d90503f	0.07046556
16	0xbca6f0f5	-0.02037857
17	0xbb09aa0a	-0.0021005892
18	0x3da893b0	0.08231294
19	0xba03e7d7	-0.00050318
20	0x3cecf8ef	0.028927295
21	0xbcebcdcc	-0.028784655
22	0xbd1d5524	-0.038411275
23	0x3cd577fa	0.026058186
24	0xbd0795a7	-0.033101704
25	0x3c932669	0.017962651
26	0xbc738212	-0.014862554
27	0x3d66d8c9	0.056359086
28	0xbb99d2f3	-0.0046943366
29	0xbc497137	-0.012295059
30	0x3d9afa21	0.075672396
31	0x3ca12fe3	0.019676154
32	0xbc09942d	-0.008397144
33	0x3d86c9ff	0.065814964
34	0x3c00c6b9	0.007859879
35	0xbcb1cfcf	-0.021705536
36	0x3d044c02	0.03229905
37	0xbce20533	-0.02759037
38	0x3c479c51	0.012183265
39	0xbd200488	-0.03906682
40	0xbb2d9e43	-0.0026492036
41	0xbcb7e0a6	-0.022445988
42	0x3b3b139c	0.0028545624
43	0x3cb9dcd2	0.022688303
44	0x3cb0d653	0.021586573
45	0xbd17eaa9	-0.037089024
46	0x3bcc3e35	0.0062330016
47	0x3b3751a5	0.0027972248
48	0x3cca8b5d	0.024724657
49	0xbd017acb	-0.031611245
50	0x3ce08d71	0.027411195
51	0x3cbb82aa	0.022889454
52	0xbcdbe9ef	-0.026844947
53	0xbce205ca	-0.027590651
54	0xbd179bed	-0.037013937
55	0xbbb4186b	-0.005496075
56	0xbbb93ad5	-0.0056527653
57	0x3d75391b	0.059868913
58	0xbabcd62e	-0.0014407092
59	0x3c12a2d1	0.008949951
60	0x3d0cfa29	0.03441826
61	0x3ca77411	0.020441087
62	0x3d86fab4	0.065907866
63	0x3bc84b35	0.006112481

out.weight f4 [1, 64, 1, 1]
0	0xbc68d2b3	-0.014210391
1	0xbd6b0572	-0.05737824
2	0x3daf0170	0.08545196
3	0x3d29ae4f	0.041426
4	0x3d921859	0.0713355
5	0xbd92c245	-0.0716596
6	0x3df2075b	0.11817809
7	0x3dbfe87e	0.09370516
8	0x3d19e4db	0.03757177
9	0xbb18df0b	-0.0023326303
10	0xbbd46b47	-0.006482515
11	0xbbcbda8c	-0.006221121
12	0x3d9ef274	0.07761088
13	0xbde1576d	-0.11003003
14	0xbb6361ff	-0.0034695861
15	0xbd90745b	-0.07053443
16	0x3dcdd3d0	0.10050166
17	0x3d9f14c5	0.07767633
18	0xbdc5b070	-0.096527934
19	0xbce46d63	-0.02788419
20	0x3d24718b	0.040147346
21	0x3d39a00d	0.045318652
22	0x3d97bf46	0.074095294
23	0x3da771a5	0.08175973
24	0xbd77b932	-0.06047935
25	0x3de53399	0.11191482
26	0x3df3643b	0.11884352
27	0xbd20893f	-0.039193388
28	0x3cc704b9	0.024294244
29	0x3dadf738	0.08494419
30	0xbdf2d360	-0.11856723
31	0xbd379a59	-0.04482493
32	0x3db10b50	0.08644736
33	0xbd999078	-0.07498258
34	0x3c2c7397	0.010525606
35	0x3d9c2a3a	0.076252416
36	0xbdb3676c	-0.087599605
37	0x3da8aecc	0.08236465
38	0x3c55bf0e	0.013046039
39	0x3db5b654	0.08872667
40	0xbc548738	-0.012971692
41	0x3d975776	0.07389729
42	0xbd6e00c1	-0.058106188
43	0x3d11c0fd	0.03558444
44	0x3dda2e62	0.10653378
45	0x3caa95d0	0.02082339
46	0xbdcf1ec5	-0.10113291
47	0xbd11b207	-0.03557017
48	0x3dbb8fc3	0.0915828
49	0x3d155fdf	0.036468383
50	0xbc950082	-0.018188719
51	0x3bbeb203	0.0058195605
52	0xbcd1290d	-0.02553227
53	0x3d90354c	0.070414156
54	0x3d8789b4	0.06618062
55	0xbd04d5c2	-0.032430418
56	0x3da90df1	0.08254612
57	0xbdd6de96	-0.10491674
58	0x3d118aa6	0.035532616
59	0xbdab9ca7	-0.083794884
60	0x3cae75d7	0.021296425
61	0xba11cc66	-0.0005561769
62	0xbd5dd035	-0.05415364
63	0x3d5e9210	0.054338515
